…
          "base_uri": "https://localhost:8080/"
        },
        "id": "5LFnU7w93iM5",
        "outputId": "8ea0256e-59fe-418e-c066-e52f8087e01c"
      },
      "execution_count": null,
      "outputs": [
        {
          "output_type": "stream",
          "name": "stdout",
          "text": [
            "Model: \"sequential\"\n",
            "_________________________________________________________________\n",
            " Layer (type)                Output Shape              Param #   \n",
            "=================================================================\n",
            " rescaling_1 (Rescaling)     (None, 180, 180, 3)       0         \n",
            "                                                                 \n",
            " conv2d (Conv2D)             (None, 180, 180, 16)      448       \n",
            "                                                                 \n",
            " max_pooling2d (MaxPooling2D  (None, 90, 90, 16)       0         \n",
            " )                                                               \n",
            "                                                                 \n",
            " conv2d_1 (Conv2D)           (None, 90, 90, 32)        4640      \n",
            "                                                                 \n",
            " max_pooling2d_1 (MaxPooling  (None, 45, 45, 32)       0         \n",
            " 2D)                                                             \n",
            "                                                                 \n",
            " conv2d_2 (Conv2D)           (None, 45, 45, 64)        18496     \n",
            "                                                                 \n",
            " max_pooling2d_2 (MaxPooling  (None, 22, 22, 64)       0         \n",
            " 2D)                                                             \n",
            "                                                                 \n",
            " flatten (Flatten)           (None, 30976)             0         \n",
            "                                                                 \n",
            " dense (Dense)               (None, 128)               3965056   \n",
            "                                                                 \n",
            " dense_1 (Dense)             (None, 256)               33024     \n",
            "                                                                 \n",
            " dense_2 (Dense)             (None, 5)                 1285      \n",
            "                                                                 \n",
            "=================================================================\n",
            "Total params: 4,022,949\n",
            "Trainable params: 4,022,949\n",
            "Non-trainable params: 0\n",
            "_________________________________________________________________\n"
          ]
        }
…
        "outputId": "3b9002a5-9cf0-4c7e-cc40-6234d8c19f0e",
        "colab": {
          "base_uri": "https://localhost:8080/"
        }
      },
      "execution_count": null,
      "outputs": [
        {
          "output_type": "stream",
          "name": "stdout",
          "text": [
            "Model: \"sequential_10\"\n",
            "_________________________________________________________________\n",
            " Layer (type)                Output Shape              Param #   \n",
            "=================================================================\n",
            " conv2d_93 (Conv2D)          (None, 64, 64, 64)        1792      \n",
            "                                                                 \n",
            " conv2d_94 (Conv2D)          (None, 64, 64, 64)        36928     \n",
            "                                                                 \n",
            " max_pooling2d_39 (MaxPoolin  (None, 32, 32, 64)       0         \n",
            " g2D)                                                            \n",
            "                                                                 \n",
            " conv2d_95 (Conv2D)          (None, 32, 32, 128)       73856     \n",
            "                                                                 \n",
            " conv2d_96 (Conv2D)          (None, 32, 32, 128)       147584    \n",
            "                                                                 \n",
            " max_pooling2d_40 (MaxPoolin  (None, 16, 16, 128)      0         \n",
            " g2D)                                                            \n",
            "                                                                 \n",
            " conv2d_97 (Conv2D)          (None, 16, 16, 256)       295168    \n",
            "                                                                 \n",
            " conv2d_98 (Conv2D)          (None, 16, 16, 256)       590080    \n",
            "                                                                 \n",
            " conv2d_99 (Conv2D)          (None, 16, 16, 256)       590080    \n",
            "                                                                 \n",
            " max_pooling2d_41 (MaxPoolin  (None, 8, 8, 256)        0         \n",
            " g2D)                                                            \n",
            "                                                                 \n",
            " conv2d_100 (Conv2D)         (None, 8, 8, 512)         1180160   \n",
            "                                                                 \n",
            " conv2d_101 (Conv2D)         (None, 8, 8, 512)         2359808   \n",
            "                                                                 \n",
            " conv2d_102 (Conv2D)         (None, 8, 8, 512)         2359808   \n",
            "                                                                 \n",
            " max_pooling2d_42 (MaxPoolin  (None, 4, 4, 512)        0         \n",
            " g2D)                                                            \n",
            "                                                                 \n",
            " conv2d_103 (Conv2D)         (None, 4, 4, 512)         2359808   \n",
            "                                                                 \n",
            " conv2d_104 (Conv2D)         (None, 4, 4, 512)         2359808   \n",
            "                                                                 \n",
            " conv2d_105 (Conv2D)         (None, 4, 4, 512)         2359808   \n",
            "                                                                 \n",
            " max_pooling2d_43 (MaxPoolin  (None, 2, 2, 512)        0         \n",
            " g2D)                                                            \n",
            "                                                                 \n",
            " flatten_9 (Flatten)         (None, 2048)              0         \n",
            "                                                                 \n",
            " dense_26 (Dense)            (None, 4096)              8392704   \n",
            "                                                                 \n",
            " dense_27 (Dense)            (None, 4096)              16781312  \n",
            "                                                                 \n",
            " dense_28 (Dense)            (None, 5)                 20485     \n",
            "                                                                 \n",
            "=================================================================\n",
            "Total params: 39,909,189\n",
            "Trainable params: 39,909,189\n",
            "Non-trainable params: 0\n",
            "_________________________________________________________________\n"
          ]
        }
…
