…
      "outputs": [
        {
          "output_type": "stream",
          "name": "stdout",
          "text": [
            "Model: \"model_6\"\n",
            "_________________________________________________________________\n",
            " Layer (type)                Output Shape              Param #   \n",
            "=================================================================\n",
            " input_7 (InputLayer)        [(None, 224, 224, 3)]     0         \n",
            "                                                                 \n",
            " conv2d_12 (Conv2D)          (None, 112, 112, 32)      896       \n",
            "                                                                 \n",
            " batch_normalization_21 (Bat  (None, 112, 112, 32)     128       \n",
            " chNormalization)                                                \n",
            "                                                                 \n",
            " activation_21 (Activation)  (None, 112, 112, 32)      0         \n",
            "                                                                 \n",
            " separable_conv2d_10 (Separa  (None, 112, 112, 16)     816       \n",
            " bleConv2D)                                                      \n",
            "                                                                 \n",
            " batch_normalization_22 (Bat  (None, 112, 112, 16)     64        \n",
            " chNormalization)                                                \n",
            "                                                                 \n",
            " activation_22 (Activation)  (None, 112, 112, 16)      0         \n",
            "                                                                 \n",
            " conv2d_13 (Conv2D)          (None, 56, 56, 16)        2320      \n",
            "                                                                 \n",
            " batch_normalization_23 (Bat  (None, 56, 56, 16)       64        \n",
            " chNormalization)                                                \n",
            "                                                                 \n",
            " activation_23 (Activation)  (None, 56, 56, 16)        0         \n",
            "                                                                 \n",
            " separable_conv2d_11 (Separa  (None, 28, 28, 40)       1080      \n",
            " bleConv2D)                                                      \n",
            "                                                                 \n",
            " batch_normalization_24 (Bat  (None, 28, 28, 40)       160       \n",
            " chNormalization)                                                \n",
            "                                                                 \n",
            " activation_24 (Activation)  (None, 28, 28, 40)        0         \n",
            "                                                                 \n",
            " global_average_pooling2d_5   (None, 40)               0         \n",
            " (GlobalAveragePooling2D)                                        \n",
            "                                                                 \n",
            " dense_5 (Dense)             (None, 5)                 205       \n",
            "                                                                 \n",
            "=================================================================\n",
            "Total params: 5,733\n",
            "Trainable params: 5,525\n",
            "Non-trainable params: 208\n",
            "_________________________________________________________________\n"
          ]
        }
…
